speech-classifier.pth (torch, 609971 bytes, 6 tensors)

weight f4 [32, 4641]
0.019625813 0.008331523 -0.027280001 -0.0088112205 0.023820026 0.006694563 -0.0063147373 -0.015395634
0.0058732987 -0.0081489 -0.0012497212 0.015592972 0.015853548 0.019587424 0.0010632919 -0.015591077
-0.01133342 0.0055730385 -0.020461125 0.008471035 0.008128595 -0.0014809673 -0.024552336 0.004277421
0.014824659 0.0041059293 -0.005120531 -0.010170947 -0.007884601 0.010515797 0.0093386825 -0.0012112841
-0.015346396 -0.014816407 0.0031063824 -0.028086992 -0.01952402 0.009122971 9.433872e-05 -0.002700857
0.002977377 -0.01790967 -0.01385772 0.024724914 0.008148616 0.01315671 -0.014966718 0.0162657
0.0010084836 0.008763057 0.016333241 -0.0028533286 -0.008293166 0.009975045 0.008629401 -0.01787355
0.0088290945 0.023155207 -0.0007207587 -0.0051605706 0.008075216 -0.02299081 -0.014160186 0.03484363
-0.023224477 0.0011100329 0.0102659445 0.022456773 -0.015442486 0.009094617 0.00926325 -0.002141889
0.016803822 0.01260019 0.013821556 -0.01769388 0.028893964 -0.006697072 -0.004958304 -0.009152636
0.0038315924 -0.019264342 0.005428739 -0.0043025706 -0.014902398 0.008104795 -0.00081590586 -0.0025097504
-0.020194285 0.0154307 -0.009839775 0.00040017668 0.0016005175 0.012275976 -0.010591815 0.018787842
-0.005156778 -0.011303731 0.0010640932 -0.0049078553 0.010382841 -0.009369371 0.025588607 -0.0002906848
-0.005954211 -0.00085349055 -0.0083141085 0.005400543 0.008227395 0.0067814505 -0.0007396487 -0.010203902
-0.013509272 0.008814576 -0.0036030775 -0.0068480535 -0.007697257 0.0102110375 -0.0103215 0.012991073
0.0059438455 0.026753832 0.0035218508 -0.017865231 0.016227745 -0.009957945 -0.0017117435 0.00963812
-0.013233167 0.005030458 -0.0102701485 0.008394292 -0.010481647 0.0018425279 0.01449169 -0.0068838364
-0.020920973 -0.007981076 -0.012340059 -0.019613866 -0.0012268731 -0.00032307103 -0.0040159943 0.00051480404
-0.007513473 0.0047213007 -0.001303512 0.022867681 -0.002399852 -0.017349482 0.001045411 -0.023097593
-0.011851782 -0.009260662 -0.016076671 -0.015124984 -0.00045774388 0.011241902 -0.009451074 0.017426383
0.0078463815 0.009303257 -0.0080064805 0.011071349 0.0024781413 -0.002592262 0.016886126 -0.011443457
-0.01704839 0.0053810566 -0.003976379 0.006650805 0.009738244 0.0015373356 0.0029193747 0.012948275
0.0171803 -0.0057046204 0.011863973 -0.0076317773 -0.012829699 -0.016908683 0.0130977025 0.0039684856
-0.019853465 -0.012387207 0.011900669 0.0043926546 0.0029085646 -0.0006796899 0.0029761994 -0.004705183
0.010393209 0.011479347 0.011633874 0.015398934 -0.00574778 -0.005269331 0.01993375 0.009701703
-0.014774618 0.0034172519 0.012031417 0.00024878993 -0.010266802 0.0030544046 0.018326912 -0.018148214
-0.007955918 0.004997936 -0.008310019 -0.0011532402 -0.003568198 -0.0043635825 -0.004904775 0.0016533975
-0.0011425636 -0.016752793 0.0074993684 0.0193783 -0.012952591 0.0008030836 -0.011789471 -0.003863174
-0.008231192 0.012008659 -0.017302353 0.0075064213 0.0048988666 -0.004118223 0.012740606 0.006713054
0.0065952395 -0.0030061465 -0.002941782 -0.0073716575 0.008117461 -0.003563062 0.0021891638 -0.011880924
0.01455235 -0.005055966 0.0002582945 0.012588759 0.008767691 0.00865523 -0.018022005 -0.012318949
-0.010009258 0.012706095 -0.0020881859 -0.005110751 0.0041302955 0.01161028 -0.0031892136 0.020564843
00000000: 50c6 a03c f180 083c 4f7a dfbc f05c 10bc
00000010: 3722 c33c 115e db3b dbeb cebb f83d 7cbc
00000020: cd74 c03b f782 05bc afcd a3ba aa79 7f3c
00000030: 4ddf 813c ce75 a03c 285e 8b3a b771 7fbc
00000040: cfaf 39bc 099e b63b 179e a7bc 19ca 0a3c
00000050: cc2d 053c 041d c2ba fb21 c9bc 9c29 8c3b
00000060: 20e3 723c 088b 863b 21ca a7bb 0ba4 26bc
00000070: 6a2e 01bc 734a 2c3c 4601 193c f3c3 9eba
00000080: 736f 7bbc 84c0 72bc 7394 4b3b b116 e6bc
00000090: d6f0 9fbc 8478 153c b7d7 c538 dc00 31bb
000000a0: 1920 433b 4db7 92bc 7e0b 63bc e78b ca3c
000000b0: c681 053c 3e8f 573c f736 75bc a53f 853c
000000c0: 182f 843a ed92 0f3c 4acd 853c e9fe 3abb
000000d0: 0fe0 07bc 5f6e 233c 5562 0d3c 8d6b 92bc
000000e0: e8a7 103c fdaf bd3c 4cf1 3cba 011a a9bb
000000f0: e94d 043c 3957 bcbc 2000 68bc 32b8 0e3d
00000100: 4241 bebc 867e 913a 7e32 283c 44f7 b73c
00000110: 7b02 7dbc 9701 153c e3c4 173c ef5e 0cbb
00000120: 2ba8 893c 0771 4e3c cf73 623c c1f2 90bc
00000130: 09b3 ec3c 1d73 dbbb 4579 a2bb f0f4 15bc
00000140: 741b 7b3b 41d0 9dbc 90e3 b13b 94fc 8cbb
00000150: 3029 74bc f9c9 043c 84e2 55ba a07a 24bb
00000160: 7c6e a5bc 0cd1 7c3c 0237 21bc cece d139
00000170: 75c8 d13a 2d21 493c 4b89 2dbc f6e8 993c
00000180: 30fa a8bb 4933 39bc 0b79 8b3a 13d2 a0bb
00000190: cb1c 2a3c fe81 19bc 339f d13c 0e67 98b9
000001a0: 8b1b c3bb c8bc 5fba e637 08bc 0af7 b03b
000001b0: 32cc 063c ee36 de3b fce4 41ba 442e 27bc
000001c0: fe55 5dbc 036b 103c 9c21 6cbb a365 e0bb
000001d0: 4639 fcbb 324c 273c 821b 29bc 82d8 543c
000001e0: 97c4 c23b da2a db3c dace 663b 1b5a 92bc
000001f0: 0cf0 843c a626 23bc 955c e0ba 35e9 1d3c
00000200: edcf 58bc 8ad6 a43b 2044 28bc 3688 093c
00000210: 37bb 2bbc fa80 f13a 8e6e 6d3c ce91 e1bb
00000220: 7662 abbc 0fc3 02bc f52d 4abc 42ad a0bc
00000230: 08cf a0ba dc61 a9b9 9a98 83bb eaf3 063a
00000240: 9433 f6bb 24b5 9a3b 9bda aaba 0155 bb3c
00000250: d646 1dbb 8020 8ebc 2c06 893a 2a37 bdbc
00000260: fa2d 42bc 08ba 17bc 39b3 83bc c8ce 77bc
00000270: 58fd efb9 f42f 383c add8 1abc c6c1 8e3c
00000280: 1c8e 003c b06c 183c 9d2d 03bc 9a64 353c
00000290: 5068 223b f1e2 29bb c654 8a3c 567d 3bbc
000002a0: 11a9 8bbc 9353 b03b 494c 82bb ffee d93b
000002b0: 288d 1f3c 6c80 c93a fb52 3f3b 0025 543c
000002c0: b3bd 8c3c d3ed babb 1c61 423c fd13 fabb
000002d0: a833 52bc 1484 8abc bf97 563c 120a 823b
000002e0: bca3 a2bc b6f3 4abc 06fb 423c 42f0 8f3b
000002f0: 9e9d 3e3b 382d 32ba 570c 433b f02d 9abb
00000300: 4748 2a3c df13 3c3c 019c 3e3c cf4b 7c3c
00000310: e057 bcbb 5aaa acbb 1b4c a33c e4f3 1e3c
00000320: 3d11 72bc f9f3 5f3b 6c1f 453c 0570 8239
00000330: 1736 28bc 682c 483b 5222 963c 90ab 94bc
00000340: 8a59 02bc bac5 a33b bf26 08bc 5228 97ba
00000350: 6ed8 69bb 62fc 8ebb 3cb8 a0bb d0b6 d83a
00000360: 13c2 95ba 273d 89bc 43bd f53b 3ebf 9e3c
00000370: 1b37 54bc 0786 523a a028 41bc 4e2d 7dbb
00000380: 1fdc 06bc f7bf 443c aabd 8dbc 6df8 f53b
00000390: ac86 a03b 29f2 86bb fabd 503c 2ef9 db3b
000003a0: e11c d83b c502 45bb e9ca 40bb f28d f1bb
000003b0: 19ff 043c 4382 69bb 1378 0f3b 35a8 42bc
000003c0: fb6c 6e3c 84ac a5bb b36b 8739 1541 4e3c
000003d0: 5da6 0f3c aace 0d3c e2a2 93bc 6bd5 49bc
000003e0: dffd 23bc 3a2d 503c f2d9 08bb 1678 a7bb
000003f0: 6e57 873b 0b39 3e3c 2002 51bb 9a77 a83c

bias f4 [32]
-0.014193788 0.0066028037 0.012063662 -0.016853226 -0.0063859336 -0.0017455806 -0.008860638 -0.0040560346
-0.006906395 0.00054119946 -0.011099294 -0.009908209 -0.000983358 0.009268692 -0.0058204145 0.010738326
-0.009968869 0.012197828 0.008598272 0.00049886695 -0.014729656 0.0074025034 0.018913912 0.017626422
-0.010113514 0.009385238 -0.012727324 -0.011684697 -0.0031111185 0.010894877 0.0106250765 0.008788698
00000000: 108d 68bc 555c d83b aaa6 453c c70f 8abc
00000010: 1841 d1bb f7cb e4ba 362c 11bc 7ce8 84bb
00000020: 0a4f e2bb 48df 0d3a d0d9 35bc 0a56 22bc
00000030: 05e4 80ba b6db 173c 2db9 bebb ceef 2f3c
00000040: 7854 23bc 66d9 473c c4df 0c3c 65c6 023a
00000050: a854 71bc b390 f23b 59f1 9a3c 4965 903c
00000060: 27b3 25bc 8bc4 193c 4486 50bc 2c71 3fbc
00000070: e8e3 4bbb 6d80 323c cd14 2e3c 79fe 0f3c

weight f4 [16, 32]
0.041330863 0.13781999 -0.06920552 -0.010347913 -0.10047297 0.0067312364 0.111711584 0.024760336
0.09137938 0.2096982 0.22544369 0.05485479 0.1997653 -0.0062821326 -0.055637788 0.116091244
-0.025686027 -0.11729678 -0.14343452 -0.00375732 -0.052523278 0.23441155 -0.0893971 -0.12285875
0.19371693 0.07270075 0.21111618 0.15641841 0.09638841 -0.057266347 0.12040642 0.004111564
-0.070536196 -0.12745273 0.15831245 -0.0729113 -0.04254937 0.07795511 0.07576754 0.019788368
0.04008503 0.10450571 0.008272872 0.044597104 0.100432955 -0.021070266 -0.099279575 -0.16107987
0.204012 -0.123281166 -0.09433838 -0.18847181 0.13099958 -0.008704701 0.04884998 0.04877652
0.18855995 -0.099049345 0.050419554 -0.029961985 0.10544334 0.0022349923 -0.17748044 -0.038678065
-0.119493514 0.028252168 -0.038198102 0.053734303 0.2308222 0.20516376 0.11257816 -0.092833735
-0.10584046 0.072412916 -0.1159109 -0.08554918 0.09996996 -0.14045666 0.11009703 0.13017492
0.20708843 0.12779501 0.13869172 0.060564984 -0.120503195 -0.08981793 -0.121500805 -0.020677634
0.042451266 0.043229874 0.13983105 0.08457688 -0.12796833 -0.14409083 -0.2015613 0.15269625
0.2091626 0.14560382 0.15581484 0.008691281 0.085488774 -0.15186769 -0.15858354 0.011271424
-0.001511086 0.17721143 0.08593802 0.23419817 -0.014796209 -0.15603809 0.1930297 0.050865967
-0.082726315 -0.17634946 0.17025638 0.101915196 -0.08252581 0.1623308 0.1795679 -0.09735978
-0.07935706 0.031617332 0.1370864 -0.1304109 -0.14788528 0.053839877 -0.089773506 0.14476524
0.15549108 -0.0908365 0.012414092 0.19965138 0.22027452 -0.019930966 -0.08973067 0.15896454
-0.17546487 0.1453921 -0.13271345 -0.1353484 0.1472922 -0.036855564 0.13231507 0.09701216
0.15266328 -0.045233246 -0.005277048 -0.03713157 -0.02817455 -0.16129872 0.07772415 -0.018058965
0.0566255 -0.16116917 0.09661021 -0.010844775 0.119501576 0.054351907 -0.026899261 0.012715037
-0.056370135 -0.13535982 -0.13429566 0.0964219 0.037279133 -0.19822697 -0.11066846 0.07907913
-0.14558399 0.075829625 -0.19864322 0.07703147 -0.1990324 -0.16990001 -0.10221389 -0.06554477
-0.1920721 -0.15228292 -0.08367918 -0.14501344 -0.092141464 -0.018950565 0.042440005 -0.1202455
-0.0053851786 -0.07093927 0.04135178 0.024481919 0.10623858 0.00390709 0.09813035 0.13851681
-0.15885916 0.13127248 0.024730759 -0.18599953 0.078512564 0.023082882 0.13641341 -0.07604602
-0.02693538 -0.17575555 0.16300042 -0.1942917 0.059053756 0.11348887 -0.00606592 0.11665301
0.0027475052 0.19988063 0.0425264 -0.18589318 -0.1575112 -0.20668824 0.16287479 0.13100293
0.11134524 0.19338404 -0.22218914 0.12094593 -0.04950994 0.032201976 0.032560024 -0.140216
0.04221789 -0.096474975 0.053327862 -0.07137224 -0.09871498 -0.06590665 -0.1546241 0.014279591
0.19520313 -0.064775094 0.09234637 0.04886606 0.12854344 -0.014413029 0.12883066 -0.09150111
-0.0687987 -0.07260317 0.0131872315 0.10202708 -0.004185643 0.07439586 0.1354029 -0.040686026
0.0194002 0.09660584 -0.13246612 0.10582613 -0.17538059 -0.08928553 -0.04550988 0.1685878
00000000: 8d4a 293d af20 0d3e a0bb 8dbd 4b8a 29bc
00000010: c6c4 cdbd b491 dc3b 0bc9 e43d 30d6 ca3c
00000020: 1d25 bb3d 20bb 563e b6da 663e 6baf 603d
00000030: 468f 4c3e 59da cdbb 73e4 63bd 3fc1 ed3d
00000040: 816b d2bc 4b39 f0bd 80e0 12be 5f3d 76bb
00000050: a622 57bd 9509 703e d415 b7bd 5e9d fbbd
00000060: bb5d 463e 21e4 943d d72e 583e 262c 203e
00000070: 4967 c53d 1e90 6abd a497 f63d 4cba 863b
00000080: 4875 90bd f882 02be a91c 223e 8552 95bd
00000090: 4048 2ebd eea6 9f3d 032c 9b3d 371b a23c
000000a0: 3330 243d 1707 d63d f18a 073c 74ab 363d
000000b0: cbaf cd3d 8d9b acbc 1753 cbbd 1ff2 24be
000000c0: 86e8 503e d67a fcbd 7b34 c1bd c1fe 40be
000000d0: c124 063e 2a9e 0ebc eb16 483d e3c9 473d
000000e0: dc15 413e 62da cabd bc84 4e3d d672 f5bc
000000f0: aef2 d73d f378 123b 6fbd 35be e46c 1ebd
00000100: 04b9 f4bd 1771 e73c 9d75 1cbd 8018 5c3d
00000110: a85c 6c3e 7316 523e 618f e63d 9d1f bebd
00000120: e2c2 d8bd 394d 943d b262 edbd 6934 afbd
00000130: 0dbd cc3d dfd3 0fbe 8d7a e13d 934c 053e
00000140: fd0e 543e b2dc 023e 3405 0e3e fd12 783d
00000150: 61ca f6bd 76f2 b7bd 6ad5 f8bd 2464 a9bc
00000160: 61e1 2d3d cf11 313d df2f 0f3e a536 ad3d
00000170: 210a 03be 8c8c 13be 1666 4ebe 685c 1c3e
00000180: b82e 563e 2b19 153e ed8d 1f3e e065 0e3c
00000190: bd14 af3d 3483 1bbe b963 22be c7ab 383c
000001a0: a20f c6ba ea76 353e 4600 b03d a5d1 6f3e
000001b0: cc6b 72bc 73c8 1fbe 94a9 453e d558 503d
000001c0: 6a6c a9bd f494 34be b057 2e3e eab8 d03d
000001d0: 4b03 a9bd 0c3a 263e a6e0 373e 9064 c7bd
000001e0: f485 a2bd 2d81 013d 6160 0c3e 6f8a 05be
000001f0: 3d6f 17be 3487 5c3d 2cdb b7bd 573d 143e
00000200: 0e39 1f3e 7d08 babd 7a64 4b3c 6971 4c3e
00000210: a58f 613e 4446 a3bc b7c4 b7bd 9ac7 223e
00000220: 10ad 33be abe1 143e 09e6 07be c598 0abe
00000230: c4d3 163e dcf5 16bd 9a7d 073e 50ae c63d
00000240: c353 1c3e 7f46 39bd 16eb acbb 4617 18bd
00000250: 50ce e6bc 7e2b 25be d72d 9f3d 65f0 93bc
00000260: 24f0 673d 8809 25be 93db c53d 48ae 31bc
00000270: 3ebd f43d 1ba0 5e3d d75b dcbc bb52 503c
00000280: 5fe4 66bd c49b 0abe cd84 09be d878 c53d
00000290: 01b2 183d 03fc 4abe 25a6 e2bd 3df4 a13d
000002a0: f813 15be 904c 9b3d 2169 4bbe adc2 9d3d
000002b0: 26cf 4bbe 45fa 2dbe 8455 d1bd 563c 86bd
000002c0: 8cae 44be 0ef0 1bbe fd5f abbd 677e 14be
000002d0: aab4 bcbd 373e 9bbc 92d5 2d3d 4643 f6bd
000002e0: 2776 b0bb 9c48 91bd 7c60 293d 4e8e c83c
000002f0: 9d93 d93d 0c07 803b 91f8 c83d 5ad7 0d3e
00000300: faab 22be 4b6c 063e 2998 ca3c a976 3ebe
00000310: 32cb a03d 5018 bd3c f5af 0b3e 04be 9bbd
00000320: 96a7 dcbc 43f9 33be 95e9 263e 67f4 46be
00000330: 5ae2 713d da6c e83d a0c4 c6bb c6e7 ee3d
00000340: 7d0f 343b 82ad 4c3e 2a30 2e3d c85a 3ebe
00000350: 9e4a 21be 15a6 53be a6c8 263e a225 063e
00000360: f908 e43d 7706 463e 8d85 63be 80b2 f73d
00000370: efca 4abd 38e6 033d a95d 053d c894 0fbe
00000380: abec 2c3d ac94 c5bd 516e 5a3d 9c2b 92bd
00000390: 142b cabd 11fa 86bd c855 1ebe f2f4 693c
000003a0: 54e3 473e cea8 84bd 1820 bd3d c727 483d
000003b0: e4a0 033e a024 6cbc 2fec 033e ef64 bbbd
000003c0: 55e6 8cbd f9b0 94bd 420f 583c 93f3 d03d
000003d0: b827 89bb db5c 983d 0fa7 0a3e 64a6 26bd
000003e0: 2bed 9e3c 48d9 c53d 33a5 07be 5fbb d83d
000003f0: f896 33be 55db b6bd 9168 3abd 48a2 2c3e

bias f4 [16]
0.056211103 -0.1271967 -0.076498814 0.09885578 0.07641268 0.10567024 -0.10454173 0.06850178
-0.05614543 0.017112277 -0.044130124 0.15440659 -0.096553065 0.14813249 0.1000683 0.07486635
00000000: 9d3d 663d da3f 02be 69ab 9cbd e674 ca3d
00000010: 407e 9c3d a469 d83d f919 d6bd a94a 8c3d
00000020: c0f8 65bd 0c2f 8c3c cac1 34bd c31c 1e3e
00000030: 9dbd c5bd 0bb0 173e 9cf0 cc3d 8753 993d

weight f4 [8, 16]
-0.18815519 0.0021346654 -0.024238734 0.09852454 -0.02977116 0.1905336 0.13485758 -0.02231004
0.13893092 -0.06119694 -0.010012957 0.13536052 -0.32426122 0.041422665 -0.1414158 0.13786127
0.022125524 0.22541231 0.051661115 0.034154832 -0.2972324 -0.044798046 0.18982545 -0.16681957
0.08044474 0.18256946 -0.12415539 -0.2787149 -0.17972377 0.09587408 -0.29714277 0.023056317
0.24975288 -0.21717124 -0.118085116 0.3073424 0.08411581 -0.015229254 -0.014959909 0.27778706
-0.18331991 0.06232031 0.019306468 -0.23673691 0.05494754 -0.28896227 -0.07779043 -0.22297093
0.113960974 -0.22088657 -0.117369704 0.04960323 -0.23280397 0.16261987 0.1845695 0.19757597
-0.0017569428 0.20884323 -0.022679903 -0.06596759 -0.14157577 -0.0259445 0.013702077 -0.2057806
0.20499435 0.2685546 -0.2807035 0.12359712 -0.19866297 -0.117001526 -0.18312205 0.13704745
-0.14909816 -0.20121183 -0.25633577 0.2910337 -0.16771954 -0.22169952 0.24101755 0.28962305
0.116605565 0.11052453 0.21327482 0.059219338 0.2622681 -0.0722506 -0.21535811 -0.16422017
-0.14319439 -0.102185026 -0.043079924 -0.0014781932 0.17896993 -0.17235482 -0.0070182853 -0.088655144
-0.1856118 -0.10593025 -0.11352395 0.051025726 0.08744317 0.15430588 0.19972834 -0.17796315
0.19713503 0.040338296 -0.12016891 -0.010544042 0.0041207573 -0.017053664 0.18722364 -0.15006703
-0.0040252614 -0.06411948 0.0604607 0.26023713 0.19583952 -0.004511515 -0.083875164 -0.15908498
0.14442413 -0.21223326 -0.2273623 -0.22427037 -0.15179092 0.1861618 0.20716147 0.12571293
00000000: c1ab 40be bee5 0b3b 4f90 c6bc 3cc7 c93d
00000010: a6e2 f3bc 3d1b 433e 1b18 0a3e 8cc3 b6bc
00000020: e843 0e3e a4a9 7abd 630d 24bc f39b 0a3e
00000030: 9105 a6be d0aa 293d 4ecf 10be 812b 0d3e
00000040: 9640 b53c 7cd2 663e 9b9a 533d f0e5 0b3d
00000050: d82e 98be 287e 37bd 9a61 423e c0d2 2abe
00000060: 36c0 a43d 7df3 3a3e 2e45 febd b8b3 8ebe
00000070: 8209 38be a159 c43d 1923 98be 9ae0 bc3c
00000080: 38bf 7f3e 2362 5ebe 9cd6 f1bd fc5b 9d3e
00000090: e944 ac3d 1f84 79bc 681a 75bc 1b3a 8e3e
000000a0: 37b8 3bbe 9543 7f3d 9928 9e3c 296b 72be
000000b0: ac10 613d ddf2 93be 9750 9fbd 7e52 64be
000000c0: 5f64 e93d 1730 62be 875f f0bd c22c 4b3d
000000d0: 2a64 6ebe d385 263e c9ff 3c3e 5b51 4a3e
000000e0: 3849 e6ba 00db 553e 34cb b9bc 041a 87bd
000000f0: 3df9 10be 8f89 d4bc ad7e 603c 26b8 52be
00000100: 0aea 513e fd7f 893e 5fb8 8fbe 7d20 fd3d
00000110: 4e6e 4bbe 7f9e efbd 5984 3bbe 2b56 0c3e
00000120: 30ad 18be 790a 4ebe 713e 83be 5e02 953e
00000130: acbe 2bbe 3305 63be 4ecd 763e 7949 943e
00000140: e6ce ee3d af5a e23d b764 5a3e fa8f 723d
00000150: 0148 863e 1ff8 93bd d686 5cbe 5529 28be
00000160: 8da1 12be 6246 d1bd 9374 30bd efbf c1ba
00000170: e543 373e c87d 30be a5f9 e5bb d490 b5bd
00000180: 0511 3ebe f5f1 d8bd 3f7f e8bd 5a00 513d
00000190: 6815 b33d 5c02 1e3e 9685 4c3e f93b 36be
000001a0: c4dd 493e c539 253d 1e1b f6bd ebc0 2cbc
000001b0: 6b07 873b 20b4 8bbc 8eb7 3f3e 2cab 19be
000001c0: 57e6 83bb 1351 83bd a4a5 773d cd3d 853e
000001d0: 288a 483e 55d5 93bb bec6 abbd 2ce7 22be
000001e0: ebe3 133e ad53 59be aad1 68be 22a7 65be
000001f0: 146f 1bbe 33a1 3e3e 2322 543e e4ba 003e

bias f4 [8]
0.056370337 0.09084363 -0.1878021 -0.0056100856 0.12428811 -0.19722106 0.045315623 0.19563259
00000000: 95e4 663d 3a0c ba3d 324f 40be cfd4 b7bb
00000010: c48a fe3d 51f4 49be e09c 393d e953 483e
